…
2022-09-11 10:03:48.076974: I tensorflow/core/common_runtime/gpu/gpu_device.cc:1525] Created device /job:localhost/replica:0/task:0/device:GPU:0 with 1354 MB memory:  -> device: 0, name: NVIDIA GeForce GTX 750 Ti, pci bus id: 0000:01:00.0, compute capability: 5.0
tf version:  2.7.0
Model: "ocr_model"
__________________________________________________________________________________________________
 Layer (type)                   Output Shape         Param #     Connected to
==================================================================================================
 image (InputLayer)             [(None, 200, 50, 1)  0           []
                                ]

 Conv1 (Conv2D)                 (None, 200, 50, 32)  320         ['image[0][0]']

 pool1 (MaxPooling2D)           (None, 100, 25, 32)  0           ['Conv1[0][0]']

 Conv2 (Conv2D)                 (None, 100, 25, 64)  18496       ['pool1[0][0]']

 pool2 (MaxPooling2D)           (None, 50, 12, 64)   0           ['Conv2[0][0]']

 reshape (Reshape)              (None, 50, 768)      0           ['pool2[0][0]']

 dense1 (Dense)                 (None, 50, 64)       49216       ['reshape[0][0]']

 dropout (Dropout)              (None, 50, 64)       0           ['dense1[0][0]']

 bidirectional (Bidirectional)  (None, 50, 256)      148992      ['dropout[0][0]']

 bidirectional_1 (Bidirectional  (None, 50, 256)     296448      ['bidirectional[0][0]']
 )

 bidirectional_2 (Bidirectional  (None, 50, 128)     123648      ['bidirectional_1[0][0]']
 )

 label (InputLayer)             [(None, None)]       0           []

 dense2 (Dense)                 (None, 50, 21)       2709        ['bidirectional_2[0][0]']

 ctc_loss (CTCLayer)            (None, 50, 21)       0           ['label[0][0]',
                                                                  'dense2[0][0]']

==================================================================================================
Total params: 639,829
Trainable params: 639,829
Non-trainable params: 0
__________________________________________________________________________________________________
Epoch 1/200
2022-09-11 10:03:59.995367: I tensorflow/stream_executor/cuda/cuda_dnn.cc:366] Loaded cuDNN version 8100
…
